s1_development_environment/exercise_files/final_exercise/model.pt (torch, 944436 bytes, 6 tensors)

weight f4 [256, 784]
00000000: 932c 72bb 933f 38bc fec9 f8bc 3afb f63c
00000010: f3e0 593c 90be 903c dca9 a4bc cead 50bc
00000020: 9617 b13a a24c 68bc 34ff 9bbc 02ef acbc
00000030: 4f65 8e3c dddf 9b3b fc75 3fbd 38c2 7cbc
00000040: 876d fcbc f47f 843c cc47 2fbc a294 6bbc
00000050: 9310 d439 61b0 4c3c ae79 f9bc 4560 543c
00000060: bcbe 263c a5e1 2f3b 4a82 4f39 9864 e03c
00000070: c574 e7bc 4074 9bbb cc59 003d ca4f 783c
00000080: c701 c03c d3ad 463c 60c9 06bc 2d8d 02bd
00000090: ba5a d7bb 10c0 8f3c a550 1abc 3fdc 38bb
000000a0: 78e3 1b3c 0110 26bd 992a d6b9 dfff 9c3c
000000b0: 5cce 26bc 980d 153d 4b17 91bc 6ec0 04bd
000000c0: 6a98 e8bc c778 0ebd f3ad 48bc 012d cfba
000000d0: 7a38 a83c 77bb 263c b712 073b dcb8 f93a
000000e0: fce6 c1bc 5c80 be3b 6403 06bd dcb0 55bb
000000f0: ee3c cabb 235f 2bbc 6eb0 973c 7147 a63c
00000100: 9427 463c 6f98 c9bc 574d 003d 44b4 0fbd
00000110: 3b6f 52bc 01cd 0a3c ed60 2bbd e714 953c
00000120: 1980 aa3c e24c c5bb ed88 b83b 4ada 8dbb
00000130: de87 d6bc 3ac3 cfba 5173 32bc 3df6 1c3d
00000140: 9c28 083d 61b9 3c3c a1b0 64bc 2751 cb3c
00000150: c5fe d7bc c56b bd3c 01b8 dfb9 b5ad e03c
00000160: ac21 6abc 4784 b3bb e4ab 983c 24fa 083c
00000170: b4cd f63c 5721 003d f35c 9f3c d099 8b3c
00000180: 7d78 9d3c bc31 e63b b410 a6bc a768 09bb
00000190: ead4 02bc 0f21 b33c 13ae c9bb 859f 15bc
000001a0: 3b40 debc d8b8 8e3c 3621 88bc 24a3 483c
000001b0: 2057 89bb 7404 663c dca1 d5bb 01d9 e3bc
000001c0: ee7c 683b 710d f9bc b6be 18bd a55c d73b
000001d0: db68 8c3c c709 a8bc 896e 073d 1f07 1c3b
000001e0: 10ff cd3b 29c9 323d 33bc 4ebc e6d3 0c3d
000001f0: 5756 a53b e4e7 fabb 05d0 09bd 980a af3c
00000200: de27 d2bb d925 cebc 54ff 19bd 71b4 e6bc
00000210: 2b11 15bd 8874 403c c5ca 9b3b edab a43b
00000220: 66d0 d03c e0b5 193d ea2e 75bc dc3f 7bbb
00000230: 3bf7 093d 15b1 b93c 61fc a5bc 459c 393c
00000240: 113b e7bc daf6 953b f1ab 0dbd a69c 88bc
00000250: 757c c73c d442 2abc 8a28 bfbc 3030 84bc
00000260: b144 a4bc 5fbb 6c3b f091 053b b859 57bc
00000270: 3ec4 f1bc 3778 303c 3898 603a 3083 02bd
00000280: dbd2 d43c b49c eabc c4bd 5b3b de8b c3bb
00000290: 66d8 e8bc 0695 053c 9334 06bd f2ed 3dbd
000002a0: 8522 fbbc dc51 07bd 0fca 0fbc 41db 45bd
000002b0: bf98 6bbc 6d8b dd3c a8e8 70bc 355a 09bc
000002c0: 85e8 403a ce3c 08bd 81cb 99bc daf4 023d
000002d0: 3f24 013d f749 a0bb fadb 1c3c ebcf 7fbc
000002e0: 0909 b03c 444b 85bb da65 71bc 16c4 01bc
000002f0: a415 6fbc 9cd4 50bc b0e0 193d 4734 0fbc
00000300: 2d36 c5bb b29f debc 4361 ccbc e567 0e3d
00000310: 0066 28bb 5d11 b33c 9991 4cbc ad33 debc
00000320: 1ed1 663c 3363 b73c ae63 babc 7ecc 263d
00000330: e431 54ba d825 af3b c594 0e3d bc02 f33c
00000340: e7d9 953c 1d32 15bd c4e9 22bc cc7e 023c
00000350: d01a ac3c 478a ffbc 7a9a e83b a63f 923b
00000360: 2ff6 703c 7695 9d3c c4e0 61ba fa10 c23c
00000370: 4b48 74bc 6079 1fbd 27ab 21bd a1be 0abd
00000380: 2563 af3c 0849 af3b 0ac9 efbb 5b77 23bd
00000390: 99eb d7bb 4645 f93c 2cd9 15bc 0c21 6c3c
000003a0: 243c 133c 89b7 4f3c 1802 973c 2e6b 89bc
000003b0: 8b57 93bc 1fcd 57bb f67b 8d3a 1a9c 9ebc
000003c0: c3f7 e9bc a8ca 963c 795d e0bb 30d9 9139
000003d0: 4a7a 75bc c3ce 5dbc c6df 283d 638c d9bb
000003e0: c4e1 b63c 598e ab3b d380 973c 1592 ec3c
000003f0: 4951 88bc 5c05 253d cf38 71bc b352 6f3c
-0.0036952838 -0.011245626 -0.030369755 0.030149091 0.013298261 0.017668992 -0.020100527 -0.012736751
0.0013511057 -0.014178427 -0.019042589 -0.021110062 0.017382292 0.004756911 -0.046743378 -0.015427165
-0.030813945 0.016174294 -0.01069827 -0.014378699 0.0004044814 0.012493224 -0.03045353 0.012962406
0.010177311 0.0026837375 0.00019789595 0.027391717 -0.028253922 -0.0047440827 0.031335637 0.015155742
0.023438348 0.012126404 -0.0082267225 -0.031872917 -0.0065720947 0.017547637 -0.009418641 -0.0028207449
0.009514682 -0.040542606 -0.00040848998 0.019164978 -0.010181036 0.036389917 -0.017711302 -0.032410078
-0.02839299 -0.03478315 -0.012248504 -0.0015806259 0.020534743 0.010176531 0.002061052 0.0019052285
-0.023669712 0.0058136415 -0.032718077 -0.0032606637 -0.006171814 -0.010459694 0.018516745 0.020297738
0.012094397 -0.024608819 0.031323757 -0.035084024 -0.012843902 0.008471728 -0.041840483 0.018198444
0.020813035 -0.006021128 0.005631557 -0.0043290006 -0.026187833 -0.0015851029 -0.010891751 0.03832077
0.033241853 0.011518807 -0.013958127 0.02481897 -0.0263666 0.023122678 -0.00042670968 0.02742658
-0.014290255 -0.005478415 0.018636651 0.008360419 0.030127384 0.031281795 0.019453501 0.017041117
0.019222492 0.007024972 -0.020271637 -0.0020966919 -0.007985333 0.02186635 -0.0061547845 -0.009132271
-0.027130237 0.017422125 -0.016617399 0.012245927 -0.0041912943 0.014039148 -0.0065195393 -0.027813436
0.0035474855 -0.030401917 -0.03729125 0.0065723234 0.017139843 -0.020512475 0.0330644 0.0023807955
0.0062865093 0.043648873 -0.012618112 0.03438177 0.005045693 -0.007657038 -0.03364565 0.021367356
-0.006413444 -0.025164532 -0.037597016 -0.028162213 -0.036393326 0.011746533 0.0047543966 0.005025378
0.025489997 0.037526965 -0.014964798 -0.0038337624 0.033683043 0.022667447 -0.020261945 0.0113287615
-0.028226407 0.004576546 -0.034587804 -0.016676258 0.024351338 -0.01039191 -0.02333476 -0.016136259
-0.020052286 0.0036122424 0.0020381175 -0.013143949 -0.02951252 0.010770849 0.0008567604 -0.03186339
0.02597945 -0.028639175 0.0033529857 -0.005967601 -0.0284235 0.008153206 -0.032764982 -0.0463695
-0.030656109 -0.03303705 -0.008776202 -0.0483048 -0.014379679 0.027044022 -0.014703907 -0.008383323
0.0007358867 -0.033261113 -0.018773796 0.03197179 0.031528708 -0.00489163 0.009573931 -0.015613536
0.021488683 -0.0040678103 -0.014733756 -0.007920286 -0.014592562 -0.0127460025 0.037567794 -0.008740491
-0.006018421 -0.027175758 -0.024948722 0.03476705 -0.0025695562 0.021858865 -0.012485885 -0.02712425
0.014087943 0.022386169 -0.02275261 0.040722363 -0.00080945925 0.0053450875 0.034809846 0.02966439
0.01829238 -0.036424745 -0.009943429 0.007964801 0.021008879 -0.031193865 0.007098493 0.004463154
0.014707132 0.019236308 -0.00086165615 0.023689736 -0.014909814 -0.03893411 -0.039469864 -0.033873204
0.02140958 0.005349282 -0.007317667 -0.039908748 -0.0065893647 0.03042854 -0.009146016 0.014412176
0.008986507 0.012678036 0.018433616 -0.01677474 -0.01798608 -0.0032928658 0.001079439 -0.019361544
-0.028560525 0.01840718 -0.0068470803 0.00027818372 -0.014982769 -0.013538065 0.041229032 -0.00663905
0.02232445 0.005235475 0.018494045 0.028878251 -0.016640322 0.040288314 -0.014723017 0.014607119

bias f4 [256]
00000000: c6b7 1d3c 7deb 0fbc 9147 9ebc 17e6 ddbc
00000010: a814 be3c 3b54 e1bc 475b 0dbd b5ca debc
00000020: 47f8 b9bc 7889 ea3c 8c93 5cbc 954f 94bc
00000030: 4a5c bc3c e7fe bebc 367a e8bc 7b5b 0a3d
00000040: 9511 88bb a3b9 f8ba 8a68 063d 73b4 bd3c
00000050: 4de2 ce3b eeae 48b9 a537 62bc 12dd be3c
00000060: 0745 4f3c 9610 8c3c e96f 86bc 1d14 043d
00000070: a3a9 043c b8c3 b53c b74b ec3c e45e bebb
00000080: 8d29 013d a417 bd3c 4fc7 dfbc a0c0 b0bc
00000090: cd79 0c3d 7f82 763c 9730 bd3a c5b3 ccbc
000000a0: 0e18 97bc 935e aabb d1ba b6bc c45c e43c
000000b0: a6e6 3cbc 4d8a 9a3c a72f c139 84df 963c
000000c0: 5abc cabc 00fc 8ebc 9f79 553c 3433 063d
000000d0: 771f 1e3b c7d7 1f3c 59d6 0dbd cdbd 973c
000000e0: a619 c6bc f129 bbbc 61e1 bfbc e1fc b43c
000000f0: 0a72 54bc 22e0 c8bc da59 b93a 9c1a e0bc
00000100: 881f 2e3b a728 05bd 95a2 c53c 5e1d bdbb
00000110: debb 0c3d 6734 533a a13f f2bc e95b 48bc
00000120: 91ad 5b3c 0f25 3f3c 133b bc3c f889 05bd
00000130: 40b9 05bc 76e4 243d 1564 f2bc 32d5 1abd
00000140: 6847 e53c f3a1 23bc c978 f33c ae13 253c
00000150: aeca 3dbc 14d5 233b 6ef5 143c 13a6 ecbc
00000160: ac2e 813b aff3 003d ad8a d63b 1596 6b3c
00000170: f7d0 0c3c 0a13 e8bb b535 cbbc d7ed 023c
00000180: 0d22 96bc 0c92 f13b f214 03bc 3bed ef3c
00000190: 6d42 c2bc 8415 8b39 ddc6 cf3c 11c4 cc3c
000001a0: 5b12 c3bc e1c7 82bc 5fda 313c 41bd 2d3b
000001b0: 6f77 86bc b067 9fbb c68b ccbc c256 47bc
000001c0: d03b dcbc 5b72 763c b150 1dbc e6df 543c
000001d0: c3be 78bb c063 d3bc d06b 023d 725c efbb
000001e0: d57d ddbc 9af5 afbc 76eb f93c b490 43bc
000001f0: 4643 0dbc 91a2 8cbb 71d1 54bc da57 4e3c
00000200: 1ee1 c0bb b007 2e3d 809d dabc 274f d0bb
00000210: ebe5 6e3c ea4c bc3c 9a62 4dbb 534d fa3b
00000220: 4ebf 503c 458b 01bd 1240 56bc 674a ee3c
00000230: 6c02 a5bc a83c 123d 501a 5ebb 0b22 82bc
00000240: b837 d63c ac5f 093c c04b 5a3b a551 a1b9
00000250: a799 a3bb d1e4 2fbb eda2 39bc 4b3b d4bc
00000260: 21dd 043d 7aa3 373c 9bb7 ddba 8160 2f3c
00000270: 5cd1 a63c d6d1 c8bc 687e b83c a55c c33c
00000280: ba28 79bb 256d c83c be94 743c aa45 b13c
00000290: 20b5 2d3c 6977 8a3c 616c 093d b4b5 2a3c
000002a0: f2d5 bb3c d0f3 04bd 4eac 283c c019 5c3c
000002b0: 5228 1a3c 9849 71bc 1d52 edbc 1035 21bb
000002c0: 3bbd 153d 2f89 c4bc 87e3 9bbc 8410 afbb
000002d0: 1632 a53b 4176 dbbc 2178 1f3c 17ce 1e3b
000002e0: b86d eaba 209c d73c f65b 043d 54ee 013d
000002f0: 414a 113d 5210 41bc a178 44bc 6779 aebc
00000300: 6726 e2ba 6ee1 2e3c 7528 1e3c ac75 b2bc
00000310: 90a5 c43c d978 413c 0ff9 a23c c20c f5bc
00000320: ba8b a23c 44e9 e5bb 90cf 7b3b f534 eabc
00000330: 1269 a0bb e8af f33b 2242 08bc 310e 923c
00000340: d894 af3c 22d4 80bc cc5d 04bc f792 b3bc
00000350: 9592 3e3b ad2a 043d c2ad 853c 3158 dbbc
00000360: 8f60 e03c 24c6 9c3c 791d b23c b353 ccbc
00000370: 434a 133c ee13 e43c 80f7 0f3b 2294 073d
00000380: 03f2 f23c 0ff1 3fbb f3c7 b2bc cd37 46bc
00000390: ab6c 6e3c ff32 d63c f1cc 02bc a8ba 00bc
000003a0: 1a6f fa3c 6845 df3b 77af 103d a8d1 00bb
000003b0: b154 663c da65 39bc 2a15 a5bb e45a c3bc
000003c0: c68e d03b aca5 13bc cc66 033c 88e3 1fbc
000003d0: a1e7 d33c 8410 323c f9e4 4b3c 51bf 103c
000003e0: 2b45 1b3d 03b6 cf3c 97ef afbc 1d0a e13c
000003f0: ec56 bbbb 404e c33c d3ef 073d 3b4d a23c
0.0096263345 -0.008784172 -0.019321235 -0.027087254 0.023203209 -0.027505985 -0.034510877 -0.027196268
-0.022701396 0.028630003 -0.013462912 -0.018104354 0.022993226 -0.023314906 -0.028378587 0.03377865
-0.0041524866 -0.0018976222 0.03281454 0.023157334 0.0063135982 -0.00019138653 -0.013807212 0.023298774
0.012650735 0.017097753 -0.016410785 0.032245744 0.008097085 0.022188053 0.028844697 -0.0058096517
0.031533767 0.023082562 -0.027316717 -0.021576226 0.034295846 0.015045761 0.0014434037 -0.024988065
-0.018444087 -0.0051992624 -0.022305878 0.027876265 -0.0115296 0.018864775 0.00036847332 0.018417127
-0.024748016 -0.017454147 0.013029485 0.032763675 0.0024127641 0.009756035 -0.034628246 0.018523121
-0.024182152 -0.022847148 -0.023422899 0.022093238 -0.012966642 -0.024520937 0.0014141158 -0.027356438
0.0026569087 -0.032509472 0.024125377 -0.005771323 0.03435885 0.000805682 -0.029571356 -0.012228944
0.013408081 0.01166655 0.022977388 -0.03260228 -0.008161843 0.04025694 -0.029588738 -0.037800975
0.02798815 -0.009987342 0.02972068 0.010075493 -0.011583967 0.002499883 0.009091718 -0.028887784
0.0039423313 0.031482395 0.006547293 0.014379044 0.008594743 -0.0070823478 -0.024805883 0.007991276
-0.018326784 0.0073721465 -0.008000599 0.029287925 -0.023713315 0.00026528176 0.02536338 0.024995835
-0.023812464 -0.01596445 0.010855286 0.002651051 -0.016414372 -0.0048646554 -0.024968993 -0.012166681
-0.02688399 0.015041913 -0.009601758 0.012992835 -0.00379555 -0.0258044 0.0318411 -0.0073047215
-0.02703754 -0.021479417 0.030507784 -0.011936355 -0.008621996 -0.0042918404 -0.012989388 0.012594188
-0.005886211 0.0424878 -0.02668643 -0.006357092 0.014581184 0.022985894 -0.0031339289 0.0076386123
0.012740923 -0.03162696 -0.013076799 0.029088212 -0.020142756 0.035702378 -0.0033890195 -0.015885374
0.026149616 0.008384626 0.003330931 -0.00030769143 -0.004992682 -0.0026839266 -0.011330348 -0.02590718
0.032437447 0.011208409 -0.0016915681 0.010704161 0.020363502 -0.02451412 0.022521213 0.023847887
-0.003801866 0.024466107 0.014928041 0.021639664 0.010602266 0.016902642 0.033550624 0.010419298
0.022929166 -0.03245908 0.010294987 0.013433874 0.009409027 -0.014727019 -0.028969819 -0.0024598278
0.036557417 -0.023991195 -0.019029392 -0.005342545 0.005041371 -0.026789786 0.009733231 0.0024231726
-0.0017885482 0.026319563 0.032314263 0.031721428 0.035471205 -0.011783676 -0.011991651 -0.021298124
-0.0017253876 0.010673864 0.0096532 -0.021784626 0.024004728 0.0118085975 0.019894151 -0.02991331
0.019842017 -0.007016333 0.0038423277 -0.028589705 -0.004895338 0.007436741 -0.008316549 0.017829033
0.021433279 -0.015726153 -0.008079004 -0.021920664 0.002907907 0.03226726 0.016318206 -0.026775451
0.027389793 0.01913745 0.02174257 -0.024942255 0.008989873 0.027841534 0.002196759 0.033100255
0.029656416 -0.002928797 -0.021823859 -0.012098265 0.014552276 0.026147364 -0.007983432 -0.007857002
0.030570555 0.006813694 0.035323586 -0.0019656215 0.014058278 -0.011315787 -0.0050379233 -0.023847051
0.006364676 -0.009011667 0.008020114 -0.0097588375 0.025867285 0.010868195 0.012444728 0.008834676
0.03790776 0.025355345 -0.02147655 0.027470643 -0.005717149 0.023841023 0.0331877 0.019812217

weight f4 [128, 256]
00000000: 1a88 70bd f95e c53b 451c 9a3d dfa7 13bc
00000010: 4a95 e3bc d6bc 63bd d75b cc3c 5b23 e8bb
00000020: f3b3 693d 865c 833c 9fa3 6fbd 1cdb 58bd
00000030: f441 d13c 0fbd 4fbd f45a 263d 95e6 46bd
00000040: 25e1 d23a c6ca a23b d6a1 133b fe16 bd3b
00000050: 9828 71bd c8ee 3dbd 2be8 503d ba78 bc3b
00000060: eb23 72bc ad75 bfbb 6b06 d1bc b31f 083c
00000070: 5e83 9b3b 0331 7d3d 3eff 55bd 85d6 983d
00000080: a1a8 f93c 3f5a a3bc a84e 54bd d4c0 703c
00000090: f55d 253c 7639 4bbd 6162 293c f8fa b33c
000000a0: 977a 573c 75a3 833c d11c 82bd 3c20 c8bb
000000b0: a4a0 8f3b 1829 843c 1d21 d63c fdd5 513d
000000c0: d1d8 853d 7a6d 7cbb 93a3 6d3b aed0 7d3d
000000d0: 7d82 52bc 48fe 573d 7f46 7dbd 4a24 c9bc
000000e0: 5be8 ff3c 1656 6a3d 89eb c9bc 4938 6abc
000000f0: ed89 103d 5531 2f3d eae4 a33c aee4 58bd
00000100: 797b 903d b520 3f3d c4cc d4bc bd23 3a3d
00000110: 76e9 d73b ccbe ee3c 656b 4fbc 0f6a 8f3d
00000120: 9ea9 ee3c be52 0b3d 9c73 ca3c 276a 1c3c
00000130: 5351 f93b 277e 3d3d 3577 6abd ee82 9e3c
00000140: 66e7 8e3c 738f 333c 2f10 b5bc cd23 3c3d
00000150: 6b16 033d 77d9 63bc bf9f 37bd c9c6 333c
00000160: cb61 313d d692 d03c affc 0ebd a765 603d
00000170: 2e5d c43c d577 82bd 9bc9 a23c db74 693d
00000180: 459e 9ebd d3af fd3c 9ae9 55bc de40 c9bc
00000190: e1f2 74bd 63cd 773c 4d10 dfbc ccbc 87bd
000001a0: 8fb3 3cbd c336 d03c 295b 2abd 8d41 a1bc
000001b0: a6cb 2f3d 20a2 48bd 6011 be3c 72a3 573d
000001c0: 4eab 2abc 388d 773c 44fd 07bd dd8a bfbc
000001d0: 3891 403d 78a2 edbc 1b09 2cbd 9c7d 603d
000001e0: 0238 04bd 4dfd 173d c6d1 97bc 94ac d33c
000001f0: 1ffa 173d ec81 49bd 0895 043d ef7f 52bd
00000200: 647e 1f3d cafa ccbc a357 523d de95 f63c
00000210: 9bce b1bc 3496 53bd 81c1 d73c 9d5f ccbc
00000220: 77de 7c3c 18a4 3abc 8d0a 81bc 7109 f73b
00000230: 1a54 493a 1fa1 863d 4a8f 9f3c 6061 5ebd
00000240: fa95 4e3d 69f6 ae3c d9cd 1fbd 12a2 1e3d
00000250: 7059 8a3b e06c 54bd 1a49 79bd 8f1b 263d
00000260: 5df1 c8bc c7e9 143c c5fe 8c3d 3a6d d03c
00000270: 4d9e b13b 1503 5b3c 37d0 543d d7eb 01bd
00000280: c8a3 56bd eab3 3e3d bf1b 2b3d 0136 143d
00000290: 776d 5bbd f4f6 403d 1afc d0bc dd18 e4bc
000002a0: ec08 aa3c e8cb fabc edb6 61bd 9e2a cd3c
000002b0: de96 10bd f94d b7bc 429c 41bd e2f5 fd3c
000002c0: fe9f 6bbd 7e9b 9fbc 931e 633c af0b 6c3c
000002d0: 6d42 07bd 51e1 8c3d c1a1 283d e41a 383d
000002e0: 38b5 0abd 0d63 11bd bbf5 c7bc 6371 c8bc
000002f0: 5ae7 a03b 5320 dcbc 29e2 f5bc e0b6 76bd
00000300: 8bbb d63c 0cd3 d13c dbad 8f3c 3cfd aebc
00000310: cfef e6ba d66e 5fbb f734 2dbd 39bc b93c
00000320: bca9 0fbd 2e58 49bd 14e7 aaba c46a 543d
00000330: fef0 5bbc 629d 29bc d835 02bc 81b0 903d
00000340: bed8 53bd 6e7a 4ab9 8e11 6cbd f8f0 7ebd
00000350: 44ed bfbc 8fe1 c83c d44f 723c d8e7 413b
00000360: 23c4 013d b874 453d b723 6f3d 132f 2e3d
00000370: a2ba 79bd 5762 09bd f6f2 af3a f8c1 053c
00000380: c2fb 843d 8b24 ce3c 03fa 9d3b 3dfd 213d
00000390: a1f5 8b3d ba4a 553c 9f4b 78bd 2dfc 1abd
000003a0: b845 7a3d d10c 663d f7b8 b1bc 80d3 123d
000003b0: 9c69 f8bb ab9c fa3b bf5f ce3c d357 803d
000003c0: 2a50 aaba 78f1 933d 100c 613d 15f4 ddbc
000003d0: f091 7e3c 8df2 753d 2aa6 0bbd ef35 bc3c
000003e0: 58ca 373d d84e 713c 2e38 3b3c 0de4 dbbc
000003f0: e680 7dbc 5336 dcbc f130 243d d85f 883c
-0.058723547 0.0060232845 0.07524923 -0.009012192 -0.027781148 -0.05560001 0.024946136 -0.007084293
0.05705638 0.01603533 -0.05850565 -0.052943334 0.025544144 -0.05071741 0.040614083 -0.048559744
0.0016088827 0.00496802 0.0022526882 0.005770563 -0.058876604 -0.046370298 0.051002663 0.0057516964
-0.014779071 -0.0058428855 -0.025515756 0.008308339 0.004745885 0.06181432 -0.05224537 0.07462791
0.030475916 -0.019940494 -0.051832825 0.014694411 0.010093202 -0.049615346 0.010338397 0.021970257
0.013151786 0.016069153 -0.063531525 -0.0061073583 0.0043831635 0.016132876 0.026138837 0.051229466
0.06535495 -0.0038517402 0.0036260828 0.06196659 -0.012848494 0.052732736 -0.06183481 -0.024553437
0.031238725 0.057211004 -0.024648445 -0.014295646 0.035287786 0.042771656 0.020006616 -0.05295246
0.070548005 0.04666205 -0.025976546 0.04544424 0.00658911 0.029143713 -0.012659882 0.07002651
0.029133614 0.034014456 0.02471333 0.009546793 0.0076085716 0.046262886 -0.05724259 0.019349542
0.017444324 0.010959494 -0.022102444 0.04593258 0.0320038 -0.013906828 -0.04483008 0.010972687
0.043306153 0.025460642 -0.034908947 0.054784443 0.023970213 -0.063705124 0.019871524 0.056996208
-0.07745031 0.030967629 -0.013056183 -0.024567064 -0.05980194 0.015124652 -0.027229453 -0.06627807
-0.046069678 0.025416737 -0.041590843 -0.019684577 0.042918824 -0.04898274 0.023201644 0.052646108
-0.010416819 0.015109353 -0.033200517 -0.023381645 0.04701349 -0.029008135 -0.04200087 0.05480729
-0.032279976 0.0371068 -0.018532645 0.025839128 0.03710377 -0.04919617 0.03236869 -0.05139154
0.038938895 -0.02502193 0.05135311 0.03010076 -0.021704962 -0.051656917 0.026337387 -0.024947936
0.015433899 -0.011391662 -0.015752101 0.0075389673 0.00076800736 0.065737 0.019477505 -0.054292083
0.050435998 0.021357732 -0.03901467 0.03872878 0.0042220876 -0.051861644 -0.06086073 0.040553626
-0.024529153 0.00908894 0.06884531 0.025442708 0.0054204823 0.013367434 0.05195638 -0.031719055
-0.052402288 0.0465583 0.041774508 0.036184315 -0.05357119 0.047110513 -0.025510836 -0.027843887
0.020756207 -0.030614808 -0.055106092 0.025044736 -0.03530013 -0.022376047 -0.04726816 0.031001035
-0.057525627 -0.019483324 0.01386227 0.014407082 -0.033022333 0.06878913 0.041169886 0.04494752
-0.03386423 -0.035494853 -0.024409166 -0.02446813 0.0049103918 -0.026870882 -0.030015068 -0.060232997
0.026212474 0.02561333 0.017538955 -0.021360986 -0.0017619076 -0.0034093163 -0.04228684 0.02267276
-0.03507398 -0.04915636 -0.0013038837 0.051859632 -0.013424156 -0.010352464 -0.007947408 0.070649154
-0.051720373 -0.0001930983 -0.05763393 -0.062241524 -0.023428567 0.024521617 0.01478954 0.0029587653
0.03168119 0.048207015 0.05838367 0.042525362 -0.060969003 -0.03354105 0.0013423848 0.008163922
0.064933315 0.02516391 0.0048210635 0.039548147 0.06833959 0.0130183045 -0.060618993 -0.03783815
0.061101645 0.056164566 -0.021694643 0.035846233 -0.007580949 0.007648071 0.02519214 0.06266751
-0.0012993861 0.07223791 0.054943144 -0.027093926 0.015537724 0.060045768 -0.034094013 0.022974936
0.044870704 0.0147282705 0.0114269685 -0.026842142 -0.015472626 -0.026881373 0.040085737 0.016647264

bias f4 [128]
00000000: 1be0 66bc 1839 003d b6fc 473c 9097 963c
00000010: c24f 5f3d 5645 363d d4d6 033d 4128 893c
00000020: 7b27 51bd e10f 533d e222 debc 856c 1fbd
00000030: e442 a5bc 48b1 863d cca1 db3c d0fb cf3c
00000040: 8286 0d3d a545 f53c 438e 383d 956a 64bd
00000050: 591d 043d 93b9 5ebd 1482 b638 be99 3fbc
00000060: f6c9 553c b4f3 453d 9243 31bd f422 483d
00000070: e867 fbbc 68a4 1b3d 8bc4 873d 5c46 2e3d
00000080: 3496 453d af5d 0cbc 19fd 693d 576f 543d
00000090: f281 753d 2138 773c 6ad3 123c 984e 4a3d
000000a0: 014e 623d fe99 8fbc 1e7c 093d 056f 473d
000000b0: 5156 4f3d a7d7 013d 40cb 8e3d 100e 6dbd
000000c0: 0132 a93c 27f8 3a3c 7ff1 cf3c 269c 393d
000000d0: 14c5 103b 5698 3c3d a55e 3c3d 42cd 923c
000000e0: 7463 c43c 8fec 663d e30b 23bd a2b0 eabc
000000f0: 96d0 ce3b bd00 d33c d8e8 36bd ac09 793d
00000100: fc60 6dbc 6f63 5b3d d99c 533d 7f50 4cbd
00000110: 085c 3b3d 1846 bb3c 652a a33c ecfc e3bc
00000120: 4758 863d ef0b f33c b953 b53a 1108 753d
00000130: 8eeb 453d 3786 5cbd 7307 c5bc 3c17 68bc
00000140: f1d9 e43c 423f 8739 7741 0fbc 5a47 c73c
00000150: 5b8d be3c b9b9 5b3d 5eb7 48bc bbdd 533d
00000160: 10b7 67bc 978c 4cbd 0477 7abd b9ea d83c
00000170: 60ee 153d 2388 6abc c4dd 6abd e71c e13c
00000180: 0c77 57bd d5ec 8a3c a251 4d3d f4aa 3c3d
00000190: 3fe7 6dbc cc51 d3bc f8de 08bd 45ce 5b3d
000001a0: c06b 3fbd c119 eabc 64a0 7a3d 843b c4bb
000001b0: 5d9c 6abd 78a5 8d3c 9518 4d3d 0eec 63bd
000001c0: a14f 783d 8083 1a3d b8a8 0fbd acdc 38bd
000001d0: de20 12bc 8565 ebbc 2335 19bd 0ed9 b93c
000001e0: 6fec c13c a321 363c dab5 da3c 3f84 783d
000001f0: e061 773c e3ee 3f3d add6 5cbd b138 fe3b
-0.014091517 0.03130445 0.012206247 0.018382818 0.054519422 0.044499718 0.032187298 0.016742827
-0.051063042 0.051528815 -0.027116243 -0.03892185 -0.020173497 0.065767825 0.02681055 0.025388628
0.034552105 0.029940436 0.045057546 -0.055765707 0.03225455 -0.054376196 8.702665e-05 -0.01169437
0.0130486395 0.048328117 -0.04327733 0.04886146 -0.030689195 0.037998587 0.066292845 0.04254757
0.048238948 -0.008567258 0.05712614 0.051863994 0.05993838 0.015089066 0.008961538 0.04939136
0.05525017 -0.017529484 0.033565633 0.04868986 0.050619427 0.031699803 0.069723606 -0.05787474
0.020653727 0.011411703 0.025383709 0.04531493 0.0022090124 0.046043716 0.045988698 0.01792014
0.023973204 0.056377944 -0.039806258 -0.028648678 0.0063114865 0.025757188 -0.04465565 0.06080024
-0.014488455 0.053561624 0.051663253 -0.049881455 0.045742065 0.022860572 0.019917676 -0.027830563
0.06559806 0.029668776 0.0013834155 0.059822146 0.048320346 -0.053838935 -0.024051404 -0.014165696
0.027935954 0.00025796337 -0.008743635 0.024326015 0.023260763 0.053643916 -0.012250749 0.05172513
-0.014142767 -0.049938764 -0.06114866 0.026479112 0.036604285 -0.014314684 -0.0573404 0.027479602
-0.052603766 0.016958633 0.05012668 0.04606147 -0.014520465 -0.02579584 -0.033415765 0.05366351
-0.046733618 -0.028576734 0.061188117 -0.00598854 -0.057278026 0.017290816 0.05007227 -0.05564504
0.060622815 0.037723064 -0.035073012 -0.045132324 -0.008918969 -0.028734932 -0.03740419 0.022686508
0.02367231 0.011116418 0.026698042 0.060672995 0.015099019 0.04685868 -0.05391567 0.007758223

weight f4 [10, 128]
00000000: 310b 6fbd 7243 553c 48e2 1d3d 7e23 f43c
00000010: d53d b2bd 4f14 ab3d 1ad9 fa3c f7e2 973d
00000020: 3ea2 b2bd 5c75 62bd 4bd4 a83c ade1 86bd
00000030: f19f 8f3d 5f0f 86bd b5ce cebd 5205 c6bd
00000040: 8fe2 d63d 8b87 bc3d 7aa5 81bd 2f38 d43d
00000050: 8259 45bd ba58 8dbc 7e4f 873d 9617 b83d
00000060: 5249 b5bd e64d b4bd b446 a43d 7164 ce3d
00000070: 8aca a83d c1ec bb3d 6ded 4abd 2e05 98bc
00000080: d43b 0cbd 27f9 f73a d0f0 52bd 877c 8d3d
00000090: a6be 6cbc b446 ba3d 692d d4bd 65d0 a2bb
000000a0: d34d 993d e174 b0bd 3280 ad3c bb38 96bc
000000b0: 3c9b 343c 3916 fd3c 2fea 89bd 5923 90bd
000000c0: 6368 c7bb dce9 e23d 7507 4bbd cfa3 d0bd
000000d0: 885e 95bc 5202 b1bd 9aec f53c b66f b13d
000000e0: 0e0a 063d b987 8f3d c66c 4cbd 183e 0a3c
000000f0: 90e8 1f3d 9938 b73c 61bc dcbd a27a 88bb
00000100: b7eb 9cbd 2a14 aabd 87b5 c6bd e718 1b3d
00000110: ad4e 503d 305f f3bc b852 75bd 1c83 7f3b
00000120: dcb1 00bd 463d b9bd 5071 ef3d 054d 7b3d
00000130: 8449 813b 90ad 8bbd 9526 a43d 0e76 7abd
00000140: 7055 b0bd 7338 64bd 0dcf ccbd 9e60 ae3b
00000150: 44b5 5d3d 0756 3e3c bfef 68bd 7578 89bd
00000160: 080d da3d 3a4d 53bc 37c9 153d c693 83bd
00000170: de68 77bd 11cd ae3d e815 893d 6a48 63bb
00000180: eab1 ffbc db8e 013d add0 a9bd bf37 22bd
00000190: 0eee 8d3c 61db 343d 4a19 ab3d 1b6a a4bc
000001a0: c627 97ba f0fa 8a3d 48be 403d cdea b93d
000001b0: 447c 31bd 0523 c7bd 48e0 493d 8082 c2bb
000001c0: 7d0c 2bbd cf80 8bbd 5a26 7abc 1bad 40bd
000001d0: 77a1 b7bc e62c e5bd 6413 953c d22f 8b3d
000001e0: 4d19 9f3c b914 e53b c11b 94bd de61 9abd
000001f0: f5d9 93bd 72df f13b 11c2 dd3c db09 2bbd
00000200: bab9 afbd 0c33 ccbc e30f 23bc 4f23 b6bc
00000210: f4c2 c1bd ac89 b73c f536 acbd 6234 bebd
00000220: dac4 033d 17f8 ee3c 5b9e 97bd 11d5 7a3d
00000230: 85ec 82bb 5a19 ac3d 2872 073b 96d7 d23d
00000240: 2577 b1bd 5fee b73c fa5d 303d 3ae8 343d
00000250: 4124 303c 6540 613d b6ee 87bc eb67 84bc
00000260: bb2f e3bd 54cf 76bd 0e7e 0a3d e2c9 68bd
00000270: 0412 eb3c 821a 90bd 637c 9f3d 9623 8cbd
00000280: 1685 9fbc 9873 65bd a4b8 4d3d 46c0 8b3d
00000290: 26f6 be3d 190e f9bd dbdc acbc ffe8 1bbd
000002a0: 1141 573d b479 acbd e9c1 71bd 9b50 613d
000002b0: 4071 953d 09a4 4ebd 8eed b3bb a8c0 943d
000002c0: e23b 1abc 04c5 6abd dfac e4bc 48c6 aabc
000002d0: b237 a7bc 3e27 393d dc2b a5bd be24 b53d
000002e0: 1884 033d 858f 5ebd dffd 883d 7f09 afbd
000002f0: 044b c13d 16fb 013d 2f97 85bb 225f 2f3d
00000300: 0964 bdbd 990e 983c 4e79 f93d d730 2e3d
00000310: f1b3 79bc 4006 c1bc a229 463a ff61 c6bc
00000320: 2d04 4dbb a210 33bc f5a1 803d 7262 c03d
00000330: 4439 a23d 7c4a 383d fe69 b53c 3398 19bd
00000340: a84a 9b3d 9ced e6bc b664 4a3d 1345 943d
00000350: c7b9 7d3d c54d 8dba 81c2 723d b84d 883d
00000360: 4218 c6bd f8f3 003c 0c92 bd3d e4dc e83d
00000370: 52b6 a13b 6418 f33b 9f27 8bbd 7c5d aebd
00000380: a722 6b3d a5b0 753d c605 8abd eb63 f8bc
00000390: 0a2c 29bd 17d4 a2bd b0d5 343d bedd 25bd
000003a0: b0cd 0bbd 52e9 be3d dcf6 9fbd 295a c73d
000003b0: f0bd 39bd f019 5c3d 99bf 8c3d 64c6 d73c
000003c0: 35ea 90bd 66bd 933d 3ca6 96bd f347 bdbd
000003d0: 045d 3fbd 3efa c0bc 9588 8d3d 5c8a c2bd
000003e0: 4a9e 933d df85 33bc edc8 e3bc f0a5 bc3c
000003f0: c000 8a3c 1d41 55bd cfaa 023a f891 7fbd
-0.058360282 0.0130165685 0.038545877 0.02980208 -0.087032 0.08353483 0.0306211 0.07416337
-0.087223515 -0.055287704 0.020609042 -0.06586013 0.07012928 -0.065459006 -0.1009802 -0.096689835
0.10492431 0.0920554 -0.0633039 0.10362279 -0.048181064 -0.017254222 0.06606959 0.08988874
-0.08851875 -0.088039204 0.08021298 0.100777514 0.08241756 0.091760166 -0.049542833 -0.018557157
-0.034236744 0.0018918858 -0.051499188 0.06908517 -0.014449751 0.09095517 -0.10360224 -0.00496869
0.07485547 -0.08616043 0.021179292 -0.018337598 0.011023339 0.030894386 -0.0673412 -0.07037992
-0.006085442 0.110797614 -0.04956766 -0.10187494 -0.018233553 -0.08643021 0.030020047 0.08663885
0.032724433 0.07008309 -0.049908422 0.008437656 0.03904015 0.022365855 -0.10778118 -0.0041650096
-0.076621465 -0.08304627 -0.09702592 0.037865546 0.05085628 -0.029708475 -0.05989334 0.003898806
-0.03141962 -0.0904489 0.116915345 0.06135275 0.0039455313 -0.06820214 0.080151714 -0.061147742
-0.08610046 -0.055717897 -0.10000429 0.0053215763 0.054127946 0.01161719 -0.056869265 -0.067124285
0.10647017 -0.01289683 0.036568847 -0.0642467 -0.060402744 0.08535207 0.066936314 -0.0034680613
-0.031212766 0.03163038 -0.08291755 -0.039603945 0.017325427 0.04415453 0.08354433 -0.020070126
-0.0011532239 0.06786144 0.047056466 0.09077988 -0.0433314 -0.09723476 0.049286157 -0.005935967
-0.041759957 -0.06811678 -0.015267933 -0.047040086 -0.02241586 -0.11190204 0.018197723 0.067962304
0.019421244 0.0069909957 -0.07231856 -0.07538198 -0.072193064 0.007381373 0.027070077 -0.041757446
-0.085803464 -0.024926685 -0.009952518 -0.022233633 -0.094610125 0.022404514 -0.0840892 -0.09287335
0.032170154 0.029171033 -0.07403251 0.061238352 -0.0039954805 0.08403273 0.0020667408 0.10295026
-0.08665303 0.022452531 0.043058373 0.04416678 0.010750831 0.054993052 -0.016593318 -0.016162833
-0.11093088 -0.060256317 0.03381162 -0.056833155 0.028695114 -0.07036306 0.07787397 -0.06842725
-0.01947264 -0.056018442 0.050224915 0.068237826 0.09324293 -0.12160892 -0.021101406 -0.038064
0.052552287 -0.084216505 -0.059022818 0.055008512 0.07296991 -0.050449405 -0.005490965 0.07263309
-0.009413691 -0.057316795 -0.027914463 -0.020846501 -0.0204123 0.04520344 -0.08065006 0.08844899
0.032108396 -0.05433609 0.06689047 -0.08546733 0.09438136 0.031733595 -0.0040768604 0.042815335
-0.09247596 0.018561648 0.1218134 0.042527046 -0.015240655 -0.02356255 0.00075593044 -0.02421665
-0.0031283007 -0.010929259 0.06280891 0.09393777 0.07921079 0.04499291 0.022145268 -0.037498664
0.07582599 -0.028189473 0.04941245 0.07239737 0.06194475 -0.0010780623 0.059267525 0.06655449
-0.096725956 0.007870667 0.09256372 0.113702565 0.0049350644 0.007418679 -0.067946665 -0.085139245
0.057406094 0.059982914 -0.067393824 -0.030321082 -0.041301765 -0.07950609 0.0441491 -0.040494673
-0.034131706 0.09321846 -0.078107566 0.097339936 -0.045347154 0.053735673 0.06872482 0.026339717
-0.070759214 0.07213859 -0.073559254 -0.09242239 -0.046719566 -0.023556825 0.069108166 -0.09499046
0.072079256 -0.01095721 -0.02780577 0.023028344 0.01684606 -0.05206405 0.0004984559 -0.062395066

bias f4 [10]
00000000: 6373 11bd b51b 093d 8cb4 f43b 55eb c4bc
00000010: e783 943d a096 1c3d bd67 943c 2ebc aebd
00000020: a54a 8abd bb37 683d
-0.035510432 0.03347369 0.007467812 -0.024037996 0.07251721 0.038229585 0.018115873 -0.08531986
-0.067525186 0.056693774
