s1_development_environment/exercise_files/final_exercise/model.pt (torch, 944436 bytes, 6 tensors)

weight f4 [256, 784]
000000 7c 75 87 3c c7 78 93 bc 7a 07 81 bc 7c 02 b6 bc
       0.016535513 -0.018001927 -0.015750635 -0.022217982
000010 01 9a 67 3c b7 79 82 bb d1 c0 e2 3c ac 84 8b 3c
       0.0141358385 -0.0039817947 0.027679833 0.017031036
000020 5b e7 ec 3d ab 4e 98 3d c2 4e 26 3e f5 14 7e 3d
       0.11567565 0.0743688 0.16240981 0.062031705
000030 07 7d d2 3d 32 46 02 3e 04 e8 58 bd 64 ee 9e 3c
       0.10277753 0.1272209 -0.052955642 0.019400783
000040 86 f3 cb 3d 07 57 01 3e b3 d0 68 3d 54 40 de bd
       0.09958558 0.12630855 0.056839656 -0.10852113
000050 63 37 86 bc 6e b7 04 3c aa a5 74 3c 4e 7f bc 3c
       -0.016383832 0.008100374 0.0149320755 0.023009922
000060 d3 c2 6e 3c d3 e7 75 bc 38 32 f2 3b 33 fc 26 3c
       0.014572817 -0.0150088845 0.0073912404 0.010191965
000070 3a c0 d5 3c 7e 66 08 bd 37 47 44 3c 77 5c 90 bc
       0.026092637 -0.03330087 0.01197987 -0.017622216
000080 7a d9 c0 3c ca bd 5f bb ca 6b d3 3b 94 ee 60 bc
       0.0235412 -0.0034140223 0.0064520584 -0.013728756
000090 d9 55 23 3e 53 c3 bb 3d c9 ed 97 3c 27 78 d1 3d
       0.15950717 0.091681145 0.018546002 0.10227995
0000a0 e2 01 02 3d 7c 00 9c 3d 58 f5 81 3d 0a 5f dd bd
       0.031740077 0.0761728 0.06345624 -0.10809143
0000b0 aa 87 9d 3d 70 fb 0c 3d c7 79 d6 bb c4 71 eb 3d
       0.076918915 0.034419477 -0.0065452787 0.114963084
0000c0 d8 ee b3 3d b0 83 85 3d 53 ef 4b 3c 6c 7d bc bc
       0.0878579 0.06519258 0.012447196 -0.023009025
0000d0 ca 87 c5 bb 01 23 c9 3c 9d 88 0a bd a5 6f c8 3b
       -0.00602815 0.024552824 -0.03382169 0.0061168247
0000e0 bc 6e 90 bc 65 e4 93 3c 7c a5 27 bc 7e db 87 3c
       -0.017630927 0.018053243 -0.010232326 0.016584154
0000f0 01 51 64 bb db 13 9d 3d 82 8c 19 3d 3b a7 91 3d
       -0.003483832 0.07669803 0.037487514 0.07111975
000100 5d ee b6 3d 16 36 28 bd 82 29 9c 3d 96 11 cd bc
       0.08932183 -0.041067205 0.076251045 -0.0250328
000110 ea aa 8b 3d 4a 71 49 3d 59 1f 10 3d 41 05 2f 3d
       0.06819709 0.049180306 0.035186145 0.04272962
000120 70 1c 2c 3d b2 53 b2 bb b0 24 8c bb ad 78 10 3d
       0.042019308 -0.005442106 -0.0042768344 0.035271335
000130 2e af 57 3e ae 28 f0 3d 67 ab 1d bd 9f ad b2 3c
       0.2106292 0.11726509 -0.03849354 0.021811305
000140 4d 3c cd bb 9e 36 df 3c 5f 9d 10 bd e5 85 af bb
       -0.006263292 0.027247723 -0.03530633 -0.0053565376
000150 7c be 45 3c c6 83 c6 3d e5 91 f9 bc 4a ba 62 bc
       0.012069341 0.096931025 -0.030465076 -0.01383836
000160 a6 83 73 3d 46 5a aa 3d cd c4 87 bd 4a 91 57 3d
       0.05945172 0.083179995 -0.06629334 0.052628793
000170 ac 5f 8d 3d f8 0d 8a 3c 65 f2 e8 bc b9 81 53 3d
       0.069030136 0.016852364 -0.028435895 0.051637385
000180 fc 73 24 3c 4f d9 e4 3c a3 0f 76 3d fc 62 1c bb
       0.010037418 0.027935652 0.060073506 -0.002386271
000190 01 9d 5b ba cd e6 1e bc 69 26 8d bd 13 bc ac bb
       -0.00083775824 -0.009698582 -0.06892092 -0.0052714436
0001a0 19 7c 1f 3c 23 0b 44 3d 9e 43 d7 3b 65 bc 3a 3d
       0.009734177 0.047862183 0.00656934 0.045589823
0001b0 61 fc 48 3d d7 74 0f bd 0a 79 9c 3c 2a 66 1b 3c
       0.049068812 -0.035023537 0.019100685 0.009484807
0001c0 f3 03 2f 3c ba 49 95 3c 0d 41 98 3c 35 cf ca 3b
       0.010682094 0.018223632 0.018585706 0.006189252
0001d0 fc d4 30 3d d5 84 0a 3e d1 4c b8 bd dc 60 c6 bc
       0.043171868 0.13527234 -0.089990266 -0.024216108
0001e0 d2 e1 56 be 8b b8 cb 3b e2 67 8e 3b 7d 14 19 3d
       -0.20984581 0.0062170676 0.00434588 0.037373055
0001f0 7c 40 c2 3c d3 43 53 bc 0f 51 14 ba 71 b2 ce bd
       0.02371239 -0.0128945885 -0.00056578306 -0.10092629
000200 69 86 0e bd c6 a8 5d b8 c0 b6 c5 bc 99 a4 cc bb
       -0.034796152 -5.284769e-05 -0.024134994 -0.0062452075
000210 91 fe 0c 3d 31 25 bc bd 86 b3 86 bd c1 9a 9c 3d
       0.03442246 -0.09186781 -0.0657721 0.076467045
000220 39 7d 0f 3d 64 9a a0 bc 25 53 dc bb 93 f6 8e 3b
       0.03503153 -0.01960487 -0.006723779 0.00436289
000230 1a 94 85 bc 91 0e d3 bc 96 a8 ac bd 80 60 e9 3d
       -0.016305972 -0.025763782 -0.08430593 0.11395359
000240 6d b5 31 bc 25 b2 69 3d bc c4 ab bc e0 1e 43 bc
       -0.010846478 0.057054657 -0.020967834 -0.011909217
000250 69 8a 54 bd 24 e7 c4 bd df 5d 7c bd 4a e4 57 bd
       -0.05188981 -0.09614399 -0.06161296 -0.052707948
000260 a7 84 01 bd 7c 88 0b be b4 5a b5 bc 6e 3e cf bc
       -0.031620648 -0.13626283 -0.022137977 -0.025298323
000270 b0 99 dd 3b c4 22 a7 3c 72 b6 44 3c b1 b7 43 3d
       0.0067627057 0.02040232 0.012006389 0.047782604
000280 3e 48 10 3d f7 05 03 bb 50 4d 10 3d 65 33 0a 3d
       0.035225146 -0.001999257 0.03522998 0.03374042
000290 b2 4f 0f 3d ea 66 0c 3d 10 72 42 3d 6e c1 6d 3a
       0.034988113 0.034277834 0.04747206 0.0009069656
0002a0 4a 1d 7b 3b aa 0e d3 3d b3 e9 c9 3d 9f 9f 91 3d
       0.0038317018 0.10305531 0.09859028 0.071105234
0002b0 f3 47 a1 3d 57 d2 eb 3d d9 0b 7b bd 82 a6 e4 3c
       0.07875051 0.115147285 -0.061290596 0.027911428
0002c0 e4 2e f1 3c 14 ff 14 bc 6a cc 90 bc 5d ea 09 bd
       0.029441305 -0.0090940185 -0.017675597 -0.033670772
0002d0 c3 c7 49 bd 5e fb a5 3c 72 72 30 bd db 90 89 bd
       -0.049262773 0.020261463 -0.043077894 -0.06717082
0002e0 2e 6c 04 bd 38 54 39 bd 86 55 31 3c 55 bb 81 bc
       -0.03232973 -0.045246333 0.010823613 -0.015836397
0002f0 5f 8c 0b bd 5c fb dd 3b 3e 28 1a bd e0 b7 a3 bd
       -0.034069415 0.006774349 -0.037636034 -0.07994056
000300 3a b9 f0 bc 4b 74 2e 3c a9 b7 ec 39 e8 43 d8 3b
       -0.029385198 0.010647844 0.00045150265 0.006599892
000310 45 31 90 bc 06 c9 4b 3d 94 af 82 3d 25 af 46 3d
       -0.017601619 0.049752258 0.06381145 0.048506875
000320 8a 85 a2 3d d0 18 ce 3c 7d 46 f9 3c bf d3 61 3d
       0.07935627 0.025158316 0.03042912 0.055133577
000330 d0 ee 7a bc e7 f5 38 3d 01 47 80 bc 99 45 06 bd
       -0.015315726 0.045156386 -0.015658857 -0.032781217
000340 b1 31 2a bd 7b 69 8d bd 08 f4 a7 ba 75 a4 03 bd
       -0.041551296 -0.069048844 -0.0012813816 -0.03213926
000350 7d f2 37 bc 2f ce b0 bc 18 5d bd bc 7d 91 3e 3c
       -0.011227247 -0.021582691 -0.02311568 0.011631367
000360 ec 09 dd 3c 01 07 87 3d 48 84 fa bb 2d 2b 49 3c
       0.02698227 0.06593133 -0.0076451637 0.01227836
000370 5e 12 e6 b8 59 0a 45 3d 87 09 bf 3c ae b0 5b bd
       -0.00010970676 0.04810557 0.023319973 -0.05363529
000380 97 b5 c4 bd 6f d9 87 3d 9b fa 03 3d fe 7d b5 bd
       -0.09604948 0.06633269 0.032221418 -0.08861922
000390 aa 64 15 bd 09 52 e2 bc cb ea 7f bc 76 91 23 3b
       -0.036472954 -0.027627008 -0.015619944 0.0024958528
0003a0 06 5c e2 3c 06 8a 4d bd 19 6b f5 3c a5 c4 ae ba
       0.02763177 -0.050180458 0.029958295 -0.0013333751
0003b0 41 af bd 3c 22 2d ac bc 86 c3 5e 3d 78 71 73 bb
       0.023154857 -0.021017615 0.054385684 -0.003714649
0003c0 9a ae bd 3b ca 3d c9 b9 a5 95 35 bd 6a 08 32 bc
       0.0057886364 -0.00038383744 -0.044332165 -0.010866264
0003d0 8a b4 42 bc 80 48 86 3b 06 3f dd 3c a9 a4 b2 3c
       -0.011883864 0.004097998 0.027007591 0.021807032
0003e0 16 17 08 3d 01 a4 19 3d 48 6f 88 bc d0 ef 63 3d
       0.03322514 0.037509922 -0.016654626 0.055648625
0003f0 2f 3c 80 bd 02 69 a4 bc f5 78 24 bd ea ac e0 bc
       -0.06261479 -0.020069603 -0.040154416 -0.027426202

bias f4 [256]
000000 1e 71 5d 3d ea d2 4b 3c cc b6 78 ba b8 83 0c 3d
       0.054062955 0.012440423 -0.0009487688 0.034305304
000010 a8 00 be bc f1 b9 90 3c c7 09 44 bd 55 9c fa bc
       -0.023193672 0.017666789 -0.047860887 -0.030592123
000020 fc de 9b bb 5e d7 79 bc 46 93 6b 3d d1 02 20 bb
       -0.0047568064 -0.015249101 0.057513498 -0.0024415741
000030 ac 74 e3 3b 22 f5 2d 3d 90 69 c9 3c 46 20 a0 bc
       0.0069413986 0.042470105 0.024586469 -0.01954664
000040 f1 91 9a 3c ab 7f 14 bd fa 1c 03 3d eb 45 3b bd
       0.018868418 -0.036254566 0.032010056 -0.045720976
000050 15 fb 61 3c ee d1 32 bb ef 7c da b9 7d dd 05 3b
       0.013792773 -0.0027285772 -0.00041673283 0.0020426207
000060 b5 7d 45 bd 44 1e 10 bd c0 49 24 3d 1f e8 43 3c
       -0.048215587 -0.035185114 0.040109396 0.011957197
000070 5d bc 91 3c ed 41 b4 3c 60 21 eb b9 62 26 c4 bb
       0.017790014 0.022004092 -0.0004484756 -0.005986021
000080 bd 7d 80 bc 38 3b 87 3c 80 3a 91 bb 4b 87 90 bc
       -0.015684957 0.01650773 -0.0044320226 -0.017642638
000090 00 d3 7e 3d 52 dc 08 3d 1f d9 d4 bc bc 68 9a 3b
       0.062212944 0.03341324 -0.025982438 0.0047121923
0000a0 ba 88 92 bc d4 6a ad bc 70 cf 17 bd 76 a4 c5 bc
       -0.017887462 -0.021169104 -0.037063062 -0.024126273
0000b0 34 e1 8d bc 79 3a 57 3d ef 06 38 3d 87 74 59 3a
       -0.0173193 0.052546 0.044928487 0.0008295257
0000c0 39 d9 87 bc 10 b1 c8 bc 9d 43 8d 3c 46 71 69 bc
       -0.016583072 -0.024498492 0.017244155 -0.014248198
0000d0 2f e5 cf bc 69 84 b4 bc a1 91 6e 3b 02 e7 31 3c
       -0.025377838 -0.022035794 0.003640272 0.010858299
0000e0 b9 07 0b 3d 80 cc 73 3d 22 93 c9 bc 7e be ea bb
       0.03394291 0.0595212 -0.024606291 -0.0071638217
0000f0 77 b7 24 3d 4a 1b 9b 3b 78 05 43 bd 2f 76 95 3c
       0.04021403 0.0047334777 -0.047612637 0.01824483
000100 c0 c7 22 bd 7d 33 55 3c c4 31 c7 bc e2 aa ba 3c
       -0.039741278 0.013012764 -0.024315722 0.022786561
000110 08 a1 bb 39 98 d9 3c 3c b8 24 62 3d cc 42 9d ba
       0.00035787397 0.011526488 0.0552108 -0.0011998056
000120 70 cb b5 3c bd 8c 33 bd f6 32 42 bc 22 3d 60 bb
       0.022191733 -0.04383539 -0.01185297 -0.0034216125
000130 da 89 21 3d 55 a3 2f bc ec d1 63 3d da a8 2f 3c
       0.039438106 -0.010720094 0.05562012 0.01072141
000140 7e 98 0b 3d a3 0b 5e 3d 0c 16 c2 bc cf 8a 16 3d
       0.034080975 0.054210316 -0.023692153 0.036753472
000150 66 33 85 3c fa 9c 13 bd 28 fb 05 bd 57 d1 ba 3c
       0.01625986 -0.036038376 -0.032710224 0.0228049
000160 d5 02 ae ba 63 ee 2d bc 10 3b eb bc 32 07 c3 3c
       -0.001327599 -0.010615918 -0.028714687 0.023807142
000170 ca aa a8 3b 60 2f a3 bc a2 2f 82 bd 70 27 53 3c
       0.005147313 -0.019920051 -0.063567415 0.012887821
000180 88 fc 5e 3c ce af 1b 3d e7 7a d5 3c 95 84 02 bd
       0.013610013 0.038009457 0.026059581 -0.03186472
000190 7e 50 a9 bb 1a cc 1a 3d 6d 14 f4 3c 5f 10 61 3d
       -0.005167066 0.037792303 0.029794896 0.054947253
0001a0 c9 ee cb bb 67 70 1b 3c c8 36 06 bb 2e 85 d4 3c
       -0.006223534 0.009487248 -0.002047943 0.025942411
0001b0 17 9e 57 3d 0f b8 a0 3c 04 f1 ac bc 53 d4 c2 bb
       0.052641 0.019619016 -0.021111019 -0.005945721
0001c0 e3 6f 02 3c b7 a3 de 3a 24 7a d1 3c 9a 22 2a 3c
       0.007961246 0.0016986047 0.025570937 0.010384226
0001d0 8a a9 9c 3c 86 c0 1a bb e1 62 91 bc fe 90 62 3d
       0.019123811 -0.0023613288 -0.017747344 0.055314057
0001e0 62 3c a8 bb 73 90 1a 3d aa f9 71 3d d9 66 fe bc
       -0.0051341513 0.037735414 0.05907599 -0.031054901
0001f0 9a 18 14 3a c7 92 8c bc cc dc c6 3c c1 38 6d 3c
       0.0005649418 -0.017159833 0.024275206 0.014478863
000200 af 4f cc 3b 4d 2e 1d bc 4a a6 11 3d 7e 36 27 3d
       0.006235085 -0.0095935585 0.035558976 0.040823452
000210 55 93 92 3c 37 a6 43 3d 59 8f d4 bc 5b e3 49 bc
       0.017892519 0.047765937 -0.02594726 -0.012322272
000220 83 8d 30 3d 06 24 7d bc b1 ee 82 3c 98 be e2 3c
       0.043103706 -0.015450483 0.015982958 0.027678773
000230 9f 80 9b 3c dd 40 94 bc 7c 49 cd bc 7d b1 1a bd
       0.01898223 -0.018097335 -0.025059454 -0.037766922
000240 ff d2 b8 3c f4 01 d9 3c 24 b5 4c bc 2a 73 e7 3a
       0.022561548 0.02649019 -0.012494359 0.0017658223
000250 d4 fd 01 bd 9f 61 6b bc 66 12 cf 3c 9e b1 63 3d
       -0.03173621 -0.014366536 0.025277328 0.05558931
000260 73 ee 0a bc 41 dd b7 3c 57 85 17 3c 33 b6 15 3b
       -0.008479702 0.02244437 0.009248099 0.0022844195
000270 a5 a9 1b 3d 97 1f 55 bc bd 90 e7 bc a1 d5 5c 3c
       0.038003583 -0.01300802 -0.028267259 0.0134786675
000280 61 4c 4f 3d 89 2a e0 3a 95 40 dd 3c ef bc 02 bd
       0.05060995 0.001710252 0.027008334 -0.031918462
000290 f3 d5 d4 bc 24 56 9c 3d 36 04 4d 3c 9c 6a 8a 3c
       -0.025980925 0.076336175 0.012513211 0.016896538
0002a0 6c 56 04 3c cf 1e a8 bc e5 8a e9 bc 9f fa 4b 3d
       0.008077245 -0.020522503 -0.028508613 0.049799558
0002b0 53 36 3b 3d a1 a1 a6 bb 21 a6 9b bc 5f 1f 44 3d
       0.045706104 -0.0050851856 -0.019000115 0.04788148
0002c0 04 db 26 bd ad 65 13 bc c6 fa c4 3c 57 00 9d bc
       -0.040736213 -0.008996409 0.02404536 -0.019165201
0002d0 3a 1d 21 bc 41 d8 99 bc 47 a9 32 3d 69 12 ad 3c
       -0.009833628 -0.018779876 0.043618467 0.021126943
0002e0 f1 89 80 bc 15 49 69 bb b2 c0 42 bd 2e e3 dd 3c
       -0.015690776 -0.0035596539 -0.04754705 0.027085867
0002f0 fd c5 b3 3c 09 eb 40 3d 39 a7 32 3d 4a 54 c8 3b
       0.021944994 0.047099147 0.043616507 0.0061135637
000300 95 c5 77 bb 38 59 2d bd 47 65 c3 3b 96 3b 3b 3d
       -0.0037806977 -0.042321414 0.005963001 0.045711122
000310 7b 17 3a bd 59 85 ec 3b 7c 30 2e 3d de e3 15 3d
       -0.04543255 0.0072180447 0.042526707 0.036594264
000320 5c 34 44 bd e3 92 4c 3d b4 26 fb ba 30 c2 2a bd
       -0.047901496 0.04994477 -0.0019161315 -0.041689098
000330 fd 92 17 3b 7e 90 16 bd f4 36 61 bc 87 37 16 3d
       0.0023128383 -0.036758892 -0.013746012 0.03667405
000340 c6 65 c9 bc b9 7a d5 bc cc 94 28 3d 3b bc 79 3c
       -0.024584662 -0.026059495 0.04115753 0.015242632
000350 78 4d e0 3c bd d0 b9 3c 31 e1 b1 3c 06 8b 5d bc
       0.02738069 0.022682542 0.021713825 -0.013521915
000360 1a a5 77 bc 84 57 ad bc 92 2e 41 3d 74 bc bf 3c
       -0.015115047 -0.021159895 0.047163554 0.023405291
000370 35 7a f3 3c 47 49 0c 3d bd ad 62 bd 26 65 c6 bc
       0.029721359 0.03424957 -0.05534147 -0.024218153
000380 dc e5 03 bd 6b 15 c0 ba b0 d0 02 bd 30 5e 13 bd
       -0.032201633 -0.001465482 -0.0319373 -0.035978496
000390 3c 0c cb bc 8e be ef bc 82 09 d1 3c a8 97 53 3b
       -0.024786107 -0.029265668 0.025517229 0.003228644
0003a0 1e 77 0a bd 2a 9f a2 3b f7 8a 3e bc 77 2b e9 3c
       -0.033805005 0.0049628215 -0.0116298115 0.028463108
0003b0 1f ca 04 3d 19 7a 7b bc 89 ed d2 bb 82 70 aa bc
       0.03241932 -0.015348935 -0.006437008 -0.020805601
0003c0 b6 f5 8d bc 50 2a 7a bc 6d e0 65 3c ed a4 99 bc
       -0.017329078 -0.015268877 0.014030558 -0.0187554
0003d0 2d b0 5d 3c 9b 36 fe bc 00 f3 2b bc ba 4c 6c bb
       0.013530773 -0.031031897 -0.010494947 -0.0036056475
0003e0 29 b1 eb bc 4c a9 01 bb 29 f7 8b bc 82 c5 b8 3b
       -0.028771 -0.0019784747 -0.017085629 0.005638779
0003f0 99 af 9d 3c 9c 2d 83 bc dc 41 a4 3c 88 95 f0 3c
       0.01924877 -0.01601296 0.020050935 0.029368177

weight f4 [128, 256]
000000 6f 14 9c bd 73 cf 0e be e9 f4 58 3d f1 8c a9 bd
       -0.07621085 -0.13946323 0.05296794 -0.082788356
000010 33 3d a0 bd 63 b5 44 be 54 9d 3b 3e 99 3e 29 bb
       -0.07824173 -0.19209819 0.18321735 -0.0025824665
000020 76 08 aa bd d9 2d 45 3d 91 57 0b 3e 84 46 a2 3d
       -0.08302395 0.048139427 0.13607623 0.07923606
000030 bd 2a da 3c c7 38 40 be 06 8d 84 3d 41 c1 bb 3d
       0.026631707 -0.18771659 0.064722106 0.0916772
000040 14 9c 92 bd b6 45 8f bc 35 d0 97 3d e1 57 69 bd
       -0.07158676 -0.017489295 0.07412759 -0.056968573
000050 7f d9 e4 bd a6 df d1 bb 30 08 39 3d 93 cd 4a ba
       -0.111742966 -0.006404835 0.045173824 -0.00077363214
000060 cd 81 1d 3e dc c9 c3 bc 4a ae d7 3d a9 23 c3 bc
       0.15381546 -0.023899965 0.1053129 -0.023820715
000070 5b 61 8e 3d 9d 28 09 3e ab 9a 08 be bd d7 2e 3c
       0.06952163 0.13394399 -0.13340251 0.010671553
000080 55 2e 67 3d 26 29 b4 bd 5a 70 5e bb 10 29 09 bd
       0.05644067 -0.08796911 -0.0033941478 -0.033486426
000090 38 e6 66 3c 19 42 59 3d 99 88 cc 3b 6c ca 47 3d
       0.014092974 0.05304155 0.0062418696 0.04877703
0000a0 11 46 10 3c 3d 9a ae bc 57 47 fb bd bb 9e 99 bd
       0.008805768 -0.02131378 -0.12269466 -0.075009786
0000b0 30 dc 4c 3e 6c e3 1f 3e 3a 46 a5 bb aa 6c 00 3e
       0.2000587 0.15614098 -0.005043772 0.12541452
0000c0 18 c0 17 3d 28 2f a2 3c 93 11 a6 ba ad 69 dc 3d
       0.03704843 0.019797876 -0.0012670032 0.107623436
0000d0 29 32 40 3d e8 cb 2c bc 1d a3 89 bd 71 85 69 3d
       0.046922836 -0.010546662 -0.067205645 0.057012025
0000e0 d9 cf 30 bb cd 75 ee bd 10 93 b0 bd f4 5b 90 3a
       -0.0026979356 -0.116435625 -0.086218 0.0011013732
0000f0 ca 43 98 bd 96 f8 3b 3c c7 2b 12 bb b4 4a d8 bd
       -0.07434805 0.011472842 -0.0022303925 -0.105611235
000100 da 25 ca bc 40 ea 5c 3e dd e3 a2 3b 41 b9 86 3d
       -0.024676252 0.21573734 0.004971011 0.06578303
000110 cb d7 cd 3b c6 05 04 be 14 a0 ca bb f2 2e f8 bd
       0.006281828 -0.12892827 -0.0061836336 -0.12118329
000120 f1 18 0b 3e 00 c6 a1 3d 82 e3 69 3d bb a2 18 bd
       0.13583733 0.07899094 0.057101734 -0.037264567
000130 96 04 1e 3d 57 fd 95 3c 52 e1 a7 3c 74 4f 03 bc
       0.038578592 0.018309278 0.020493183 -0.008014549
000140 49 30 57 3d 16 bd 9d bc d0 b1 c2 3c 02 c4 2f bd
       0.052536283 -0.019255202 0.023766428 -0.042911537
000150 fe 9e b1 3d 82 21 98 3d 90 51 5a bd ea 4c 32 bd
       0.086729035 0.07428266 -0.05330044 -0.043530382
000160 ec f7 7f 3c 0e c2 47 3e aa 5e 97 3c d7 5b 96 bd
       0.015623074 0.1950762 0.018477757 -0.07341736
000170 8e fb 75 3c b0 5b b7 bd 70 b4 c0 3d 53 73 eb bc
       0.015013589 -0.08953035 0.09409416 -0.028741514
000180 64 9c cd 3d 05 ee 15 be 3d f9 54 3c ae 21 ac bd
       0.10039595 -0.14641578 0.012998876 -0.084048614
000190 15 cc a6 bd f3 78 c1 3d fe e1 d2 bc c9 3a b1 3d
       -0.08144394 0.09446897 -0.025742527 0.086537905
0001a0 ca a7 94 3d 96 ef c3 bd a1 d0 40 3d 13 20 25 3d
       0.07258566 -0.09567182 0.047073964 0.04031379
0001b0 63 7e 1f bd 4c 5a 2e bb 82 dd 8c bd 47 dd 81 3d
       -0.03893889 -0.0026604114 -0.06878187 0.063410334
0001c0 83 dc b5 3d 2d 4b b0 bc fb 33 1b 3d bc de 6f bc
       0.0887995 -0.021520222 0.03789137 -0.014640506
0001d0 ca 3f 18 3e ce b8 80 3d bc dd 3f bd c4 ed 2b 3d
       0.14868084 0.06285249 -0.04684232 0.041974798
0001e0 63 7f ec bd 23 06 4f bd 96 b4 8b bc 39 4a dd 3d
       -0.115477346 -0.05054296 -0.017053884 0.108051725
0001f0 f0 5d dc 3c a5 5a 3e bd 0b ac 92 3d d1 46 89 3a
       0.026900262 -0.046473164 0.07161721 0.0010473375
000200 a3 bb 17 bc 84 ce 91 3d 52 09 fc bc a6 82 72 3c
       -0.009261045 0.07119468 -0.030766163 0.014801657
000210 da f3 36 3e 56 06 c3 bc 61 de 50 bb 28 54 f4 bd
       0.1786646 -0.023806732 -0.003187083 -0.11930114
000220 ab 21 48 bd 92 f3 0c be c9 e6 98 bd 0d 6a b6 3d
       -0.048860233 -0.1376479 -0.07465894 0.08906946
000230 e9 4b d2 bd b3 60 ab 3d 50 34 a3 bd 00 92 04 3e
       -0.10268385 0.08368053 -0.07968962 0.1294632
000240 5e 5c 93 bc 82 fb 51 bd 75 d0 e4 bd a3 4e a3 3d
       -0.01798838 -0.051265247 -0.111725725 0.07973983
000250 86 10 98 bb fe f4 bf bd c9 23 a3 3d 1e 26 36 3c
       -0.0046406416 -0.093729004 0.0796581 0.011117486
000260 89 1f b5 bc b3 19 15 bc 94 19 bb 3c e9 c8 e3 bd
       -0.022109764 -0.009100365 0.022839345 -0.11122305
000270 56 7f 82 bd 38 07 83 3d a4 80 f6 3b 8b 8a f6 bc
       -0.06371944 0.06397861 0.0075226594 -0.03009536
000280 72 49 30 3e 84 63 24 3d 44 3e fd 3c d7 1c 81 3d
       0.17215517 0.040133968 0.03091348 0.06304329
000290 1b ac d7 3d fe e2 14 3d 9c 02 a0 3c f6 3e 14 be
       0.105308734 0.03634929 0.019532494 -0.14477143
0002a0 76 46 1a 3e 55 d8 5a ba 10 ce 89 3c 8f 89 10 39
       0.15065941 -0.0008348276 0.016821891 0.00013784155
0002b0 86 f4 b0 bd 79 10 80 bd a9 0a f0 3d 50 e0 e2 3c
       -0.08640389 -0.06253142 0.11720783 0.027694851
0002c0 7e 21 19 bd 8e 29 c8 3c 01 c8 4f bd 04 dc 17 3d
       -0.037385456 0.024433877 -0.050727848 0.037075058
0002d0 49 98 4b 3c 9e 76 02 3d 2b 51 99 3d 1a 68 ff 3d
       0.012426444 0.031851403 0.07486185 0.12471028
0002e0 c4 5e ac 3d 80 ad 3c 3e 46 3b 33 3e d5 f5 87 bc
       0.084165126 0.1842556 0.1750308 -0.016596714
0002f0 0b 77 2f 3e ea c9 0c 3e dc 28 ca bc 31 4d 18 3e
       0.17135255 0.13748899 -0.024677686 0.14873196
000300 6b f1 aa bd 55 c8 88 3d 0a fe 30 bd 24 09 13 bd
       -0.08346828 0.06678835 -0.04321102 -0.03589739
000310 47 c5 e3 bd ce 3a f1 bd fb 6c c2 3c 24 bc 3a bb
       -0.11121612 -0.11778794 0.023733607 -0.0028493488
000320 7b 7c a6 3d 43 39 43 3c bd 55 8e bd 53 aa 88 bd
       0.081292115 0.011915508 -0.06949947 -0.06673112
000330 3a 5a d0 3c 8f 59 5a bd fa c1 98 3c b4 55 96 3d
       0.025433648 -0.053308066 0.018647183 0.07340565
000340 72 1f 5b 3d 6d 1c 0e bd 95 c3 95 bd 14 0a ac bd
       0.053496785 -0.034695078 -0.07312695 -0.0840036
000350 c8 02 82 bd 9d f2 dc bc 74 79 30 bd bb 0d 4d bb
       -0.06348187 -0.026971156 -0.043084577 -0.0031288702
000360 27 c5 49 3e 72 bc 47 3c 3d 13 e1 bb 8c f7 a8 bd
       0.19704114 0.012190925 -0.0068687485 -0.08250341
000370 f9 26 2c bd 9b 45 dc 3d 9f e1 49 be 39 2d 18 3c
       -0.042029355 0.10755464 -0.19714974 0.009288126
000380 c7 78 54 3d d1 30 58 3c 09 7d 02 bd e1 9d 31 3e
       0.051872995 0.0131952325 -0.031857524 0.17345382
000390 62 bd 59 3d 5b 98 f5 3d 71 40 1d 3e 24 9a 10 bd
       0.053159125 0.1199195 0.15356614 -0.03530325
0003a0 ff 16 8a bc b6 94 fa 3d 03 da 91 3d dc c3 40 3d
       -0.016856669 0.122353956 0.071216606 0.047061786
0003b0 39 c2 2c bd bb 5e b8 bc a2 45 15 3d 10 b2 53 3e
       -0.042177413 -0.022506109 0.03644336 0.20673394
0003c0 7c bf 0e 3e ad 26 95 3d 70 1a 85 bd 91 e6 97 3c
       0.13940233 0.072827674 -0.06499183 0.01854256
0003d0 cb 0b ac bd 84 1e 41 3c a3 32 cc bb ba 84 45 3d
       -0.08400687 0.011787061 -0.0062316223 0.04822228
0003e0 27 d2 7b 3c 80 13 dd bc cf d8 e1 bc 43 f7 8c bc
       0.015369928 -0.026986837 -0.027569203 -0.017207747
0003f0 7f cb 53 be 6d a5 b9 bd cd 37 a7 3d ae 8b c6 bd
       -0.20683096 -0.090647556 0.0816494 -0.096946105

bias f4 [128]
000000 e4 be d0 bc 4b a8 86 3b 77 aa 85 bc f2 21 c7 bc
       -0.025481649 0.0041094176 -0.016316636 -0.024308179
000010 e5 15 1e 3c f7 d4 aa bc f9 6b 84 3c 68 0a bd 3c
       0.009648775 -0.020853503 0.016164767 0.023076251
000020 e8 bc ad 3c e4 fb a1 3b bd 98 9f 3d 0d d8 3d bd
       0.021208242 0.004943358 0.077928044 -0.04634862
000030 7a 3b 0c 3d e8 0b 4c 3d bd 92 8f 3d 34 13 d4 3c
       0.03423641 0.049816042 0.0701041 0.025888063
000040 df 9e 76 3d 72 7f a7 3c 26 86 e4 ba 94 26 74 bc
       0.060210105 0.020446513 -0.0017434999 -0.014901776
000050 83 d2 d8 3c f9 2c 9e 3d 7c ff 4b bc 75 08 ac bc
       0.026467567 0.077234216 -0.012451049 -0.021000126
000060 eb 2c 77 3b 23 f2 b2 bc b7 55 77 3d 17 f1 1e bd
       0.0037715982 -0.021843975 0.06038448 -0.03880414
000070 8e 1a 85 3d 2d 67 88 bc 59 cf 8d bc 5d 2a dc bc
       0.064992055 -0.01665076 -0.017310785 -0.02687567
000080 82 1d 74 3d c9 2a 07 3d a1 1d 66 3d c5 61 ba bc
       0.059598453 0.032999787 0.0561806 -0.022751698
000090 6f 30 78 3d e7 3f e3 3c 4f f8 2e bd 2d 9a 11 3d
       0.060593065 0.027740432 -0.042717274 0.035547424
0000a0 7c b6 eb bc a7 47 3b bc 45 08 7a 3d c2 ed 46 3d
       -0.028773539 -0.0114306575 0.061043043 0.048566587
0000b0 5d 4c 63 3d c3 4b bf 3c 3b 0d 92 b9 96 6e 04 bd
       0.055492748 0.023351556 -0.00027857148 -0.032332025
0000c0 15 fa b9 3c 71 61 b4 3a 1c 2e 4d 3d a6 91 97 bc
       0.022702256 0.001376195 0.0500928 -0.018502068
0000d0 1b b8 ce 3c 46 a6 47 3d 57 a0 27 bc 31 9d 32 3c
       0.025234273 0.048742555 -0.010231099 0.010901735
0000e0 68 98 8d 3d cd 60 32 bd df ea 57 3d 9c 25 d6 3c
       0.06913835 -0.043549348 0.052714225 0.02614098
0000f0 25 36 6a 3d 08 2b 13 3c 73 ba ce bc 4e be 4e 3d
       0.057180542 0.008982427 -0.02523539 0.050474457
000100 17 0c d5 3c d7 ee 5f bd c4 f4 44 3d ac d8 08 bd
       0.026006741 -0.054671135 0.04808499 -0.03340976
000110 3b 3d 0a bc 1c ec 96 3d da 2e 1d 3d 45 df 4a 3b
       -0.00843745 0.07369253 0.03837476 0.0030955833
000120 d3 ad 2b 3c 08 2d 05 3c 50 f4 1e bd ca 54 71 bc
       0.010478455 0.008128412 -0.038807213 -0.014729688
000130 a7 a3 6b ba 42 fa 55 3c 92 b6 51 bd 32 68 ea 3c
       -0.00089889247 0.013060154 -0.051199503 0.028614137
000140 31 97 23 3d 0c c0 13 bd f5 86 2b 3d 9f a0 69 bc
       0.03993911 -0.036071822 0.041876752 -0.014259486
000150 30 4c 27 bc 6d fb 06 3d 67 cf df 3a 2c fb 4a 3c
       -0.010211036 0.032954622 0.001707536 0.012388986
000160 b4 5c 26 3d 50 80 fb bb 6a 46 4a 3c eb 95 5f bc
       0.040615752 -0.007675208 0.01234589 -0.013646583
000170 1c 1e 88 3d bf 3c 58 3d 27 b4 cc 3c 8d 17 95 3d
       0.06646368 0.052792307 0.024988247 0.072798826
000180 5a bd 55 3d 84 29 e2 bc 22 35 e9 3c 56 89 54 3c
       0.052182533 -0.027607687 0.028467719 0.012972197
000190 2c e2 aa 3d 3e 75 5c 3d a1 20 a3 3d cc 40 1c bd
       0.0834392 0.05382275 0.07965208 -0.038147733
0001a0 cb aa fe bc 40 93 9f bc bc 8c 38 bd 1d 43 9a 3d
       -0.0310873 -0.019479394 -0.04505609 0.07532332
0001b0 1f df a7 3c 4f cb 1b bd 3b 41 00 b9 f1 22 37 bd
       0.020492135 -0.038035687 -0.00012231331 -0.044711057
0001c0 c4 af 4a 3c c2 b1 7f 3d dc 6e dc bc a7 a4 a4 3c
       0.012371007 0.062425382 -0.02690833 0.020098044
0001d0 b1 0f 79 bc 55 db 38 3d 6b a2 23 3d 95 44 3a 3d
       -0.015201495 0.045131046 0.039949816 0.04547556
0001e0 ca 04 15 3d 2f 59 36 bd 08 04 5b 3d b3 af b4 3a
       0.03638152 -0.044518646 0.05347064 0.0013785273
0001f0 87 ef e0 bc a6 b6 28 bc 28 07 e3 3c ad db 54 3c
       -0.027457966 -0.010297453 0.027713373 0.012991828

weight f4 [10, 128]
000000 9e 38 f4 3e 06 93 09 3c 5c 64 45 3e fb cc 19 be
       0.47699445 0.0083968695 0.19276565 -0.150196
000010 5e 55 08 be 7c c8 c4 bd 0a 88 2e 3e ba 7e d2 bc
       -0.13313815 -0.09608552 0.17044082 -0.025695194
000020 eb cc 0e 3e 29 b5 84 3e c5 97 b9 bd 0d 32 47 3e
       0.13945358 0.25919464 -0.09062151 0.19452687
000030 a2 cb 24 be ca f4 95 3e b8 fe be 3c 6b 23 ee bd
       -0.16093305 0.29288322 0.023314819 -0.11627849
000040 b7 e4 89 3e fd 6d 04 be d9 05 76 3e c6 82 60 be
       0.26932308 -0.12932582 0.24025668 -0.21924886
000050 f6 21 de 3d 01 53 ef 3d a7 3e 88 be 5f ed 07 3e
       0.10846321 0.116857536 -0.266103 0.13274144
000060 ca 88 80 be a8 90 80 3e 1d ca 38 be 3a 1d 21 bd
       -0.25104362 0.25110364 -0.1804585 -0.039334513
000070 42 63 b2 3e 89 2b 5d bd cf 56 5d 3d 9e c4 4c be
       0.34841353 -0.053996596 0.054037865 -0.19996879
000080 1a db 6b be 8e e0 59 3e ad 70 83 be 6c 95 91 3e
       -0.230328 0.21277067 -0.25671902 0.28434312
000090 77 2a b9 bc 21 a3 64 3e 0b a1 2d be 29 68 91 3e
       -0.022603257 0.22327854 -0.16955964 0.2839978
0000a0 9c 2e 0a 3e 50 ff 8d be 62 29 b1 be 41 84 2a 3e
       0.13494343 -0.2773385 -0.34601885 0.16652013
0000b0 53 f4 30 3e 18 65 33 3e 6b 9d 96 be fb ce 13 3a
       0.17280702 0.17519033 -0.29416975 0.00056384475
0000c0 9d a8 8e be 4e 58 7b be e9 f2 76 3e be e0 34 3d
       -0.27863017 -0.24545404 0.241161 0.044159643
0000d0 7b 72 af 3d 95 bb c0 3c cb 0d 63 bd 41 f6 11 3c
       0.08566757 0.023526946 -0.055433076 0.008908809
0000e0 6b fb a9 be df 59 fe bd 41 d2 7b 3e 9b 61 1e be
       -0.3319963 -0.12419485 0.24591924 -0.15466921
0000f0 ac 22 0c be 82 54 a3 be 0c 53 bb be 6d bb 50 3e
       -0.13685101 -0.31900412 -0.36586797 0.20383997
000100 4b e3 63 3e cf de f4 3d 74 e4 6e bc 4f 19 6d 3e
       0.22254674 0.1195656 -0.014580835 0.23154186
000110 a2 c2 7b be d2 72 71 be fd 1e 01 be 84 dc 0b be
       -0.24585965 -0.23578957 -0.12609477 -0.13658339
000120 d0 ec ea 3d 77 ff 18 3e 0d 13 b5 bd 93 03 39 3e
       0.1147095 0.14941202 -0.08841524 0.1806777
000130 65 dc ad be 68 cf 06 3e 8f 44 66 3e 48 08 90 3e
       -0.3395721 0.13165057 0.2248709 0.28131318
000140 dc 4e 5c 3e 43 40 40 3e 8c 07 2b 3e 4b 79 0d be
       0.21514457 0.18774514 0.16702098 -0.13815801
000150 ac 58 0a 3d 3f a2 49 3e 53 02 76 be ee 05 89 bd
       0.03377597 0.19690798 -0.24024324 -0.06690584
000160 db 25 9e 3e 06 c7 8d 3c 8a e6 8d be 94 29 4c 3e
       0.30888256 0.017306816 -0.2771495 0.19937736
000170 b6 fe b9 bd 42 60 8e be e7 66 3f 3c 6a fc 5f 3e
       -0.090817854 -0.27807814 0.011682249 0.21873632
000180 5a b3 7f be b1 0a 20 3e 21 8e 13 3e b5 3f 06 be
       -0.24970761 0.15629078 0.14409687 -0.1311024
000190 ec d1 2f 3e 39 41 66 be ab 25 0a be 8a a8 30 3e
       0.17169923 -0.22485818 -0.13490932 0.17251793
0001a0 e0 03 26 3c c6 23 a8 3d e4 ef cf 3d 40 f2 4d 3d
       0.01013276 0.08209948 0.101531774 0.050279856
0001b0 98 80 77 be 12 f9 1c 3d 59 2a b6 3c 44 5b 21 3e
       -0.24170148 0.03832347 0.02223699 0.15757471
0001c0 73 12 b3 be de 12 8f be 8d fb 65 3e 9b a7 93 bd
       -0.34975013 -0.27944082 0.2245924 -0.072097026
0001d0 68 7c 03 3e ed f4 61 be 58 f5 3d be 3e d4 93 bd
       0.12840426 -0.22066088 -0.18550622 -0.07218216
0001e0 7e 7a 8b 3e 00 e4 ad bd 08 1f 6a be fa a6 12 3e
       0.27241892 -0.08490753 -0.228634 0.14321509
0001f0 f2 af 68 be 96 d2 8b 3d 95 db 72 be 29 b8 9c be
       -0.22723368 0.068272755 -0.23716576 -0.30609253
000200 f2 d0 b3 bd 27 07 18 be 87 89 af 3d 7c 69 85 3e
       -0.087800875 -0.14846478 0.08571153 0.2605704
000210 4a 30 0c 3e a3 b9 32 bd c5 11 22 3d 69 a3 43 be
       0.13690296 -0.04363407 0.039567728 -0.19105305
000220 2e 97 8b bd ad fb f4 bd 24 80 ca 3d bd 6a b3 be
       -0.068159446 -0.11962066 0.09887722 -0.35042372
000230 77 50 ae be 6b 03 ae be 18 d6 6e be 01 b8 9e 3e
       -0.34045765 -0.33986983 -0.23323858 0.3099976
000240 d4 f4 6d be 47 e9 43 3e 7d 7c 41 3b c7 b1 25 3e
       -0.23237926 0.19131957 0.0029523664 0.16181098
000250 bf da 09 3e 5e e1 63 3d 8b 0d 98 3e 45 71 8e 3c
       0.13462351 0.05563485 0.29697832 0.017387995
000260 60 97 2e be d0 45 86 3e cd eb b7 3c 60 4d 40 be
       -0.17049932 0.26225138 0.022451306 -0.18779516
000270 3f 76 c6 be 6c 46 a9 bd 18 63 c8 3c 9a 21 77 3e
       -0.3876209 -0.08265385 0.024461314 0.24133912
000280 ec f6 ab 3e 02 56 21 bd 33 28 b8 3d 9f d2 a9 be
       0.33586824 -0.039388664 0.089920424 -0.33168504
000290 82 01 76 3e 85 f1 10 bd 4b 03 6f be d5 c5 21 be
       0.24024013 -0.03538658 -0.233411 -0.15798123
0002a0 b7 d6 92 be 19 95 7e 3e 98 ea 81 3e e9 ea 59 be
       -0.2867944 0.24861564 0.25374293 -0.21281017
0002b0 e4 31 98 3e 28 1d 22 3e 5e ff 17 3d 63 a7 40 3e
       0.29725564 0.15831435 0.03710877 0.18813853
0002c0 e7 7d cd 3d 58 7c 39 3e 33 5f b2 3d 2e 26 1e be
       0.100337796 0.1811384 0.08709564 -0.15444252
0002d0 6d af a8 be 44 50 4e bd ce b0 52 be 25 10 8b 3d
       -0.3294634 -0.050369516 -0.20575258 0.06790189
0002e0 ac 63 36 be 63 f3 a6 be a5 63 22 bb d6 49 5c 3d
       -0.1781146 -0.32607564 -0.002477863 0.053781353
0002f0 48 a8 86 be 13 3d 53 3e 98 8c 51 bd 68 02 5d 3d
       -0.26300263 0.20628767 -0.05115947 0.053957373
000300 28 e8 fb 3b e1 ac 9f be c4 69 28 3e 4e 8a 95 be
       0.0076875873 -0.31186584 0.16446596 -0.2920708
000310 6a c1 4e 3e 92 c6 81 3e 40 ed ad 3d 2d 62 bf bd
       0.20190969 0.2534681 0.084925175 -0.093448974
000320 0e 0e 4f 3e bf 43 58 3d 10 0e 68 3d 1c 46 09 be
       0.20220205 0.052798983 0.056654036 -0.13405651
000330 2b ff 0c 3e d7 5c f1 be 7e d4 2f be cd a1 b8 bc
       0.13769214 -0.47141144 -0.17170903 -0.02253809
000340 27 39 38 be 95 3b dd be 7f 44 ab be 70 3b 5e 3e
       -0.17990552 -0.4320952 -0.33450696 0.21702361
000350 80 fa 34 3e 12 d3 49 be c1 41 f1 3c 57 46 ee bd
       0.17673683 -0.19709423 0.0294503 -0.1163451
000360 28 fd 32 be 9a 86 33 bd c7 a2 59 3d bf bc 83 be
       -0.17479384 -0.043829538 0.053133752 -0.2572994
000370 a8 52 c1 3d f5 53 93 3e c0 49 1f be e5 d9 24 bd
       0.094395936 0.28774992 -0.15555477 -0.040246863
000380 34 d2 84 bd 42 51 0a be 1f 1d 2d 3e e1 7b 43 be
       -0.064854056 -0.1350756 0.1690564 -0.19090225
000390 c1 15 db 3d 19 7c 4d 3e 26 9c 5d 3e 44 c1 02 3d
       0.106975086 0.20066871 0.21641597 0.031922594
0003a0 88 83 a2 be 0a be 18 bd 3d c8 25 be 8e 82 a7 3d
       -0.31740975 -0.03729061 -0.16189666 0.08179198
0003b0 eb e4 6d 3d 01 8a 1e 3d 86 cb e4 3d 12 01 89 be
       0.05807964 0.03870583 0.111716315 -0.2675863
0003c0 54 48 dd 3d d9 5e 08 bd 21 7c 2a 3d a0 1d be 3d
       0.10804811 -0.03329358 0.041622285 0.09282994
0003d0 b2 9c a2 3e fb 5e 9e be e0 5b 97 3e 9c c0 68 bd
       0.31760174 -0.3093184 0.29562283 -0.05682431
0003e0 21 75 7b be 58 7b 70 3e 83 aa 30 be 2e 92 bb be
       -0.245564 0.23484552 -0.17252545 -0.36634964
0003f0 0c cf 70 3d 4c 53 39 be 24 d7 4f be 30 1f 0a 3d
       0.058791205 -0.18098181 -0.20296913 0.03372115

bias f4 [10]
000000 91 65 42 bd cb 81 bf ba e8 22 7f 3c 62 1e e0 3b
       -0.047460143 -0.0014610825 0.015572287 0.0068395594
000010 73 d8 1f 3c e5 fd 86 3d 4e 9b a7 bd d2 3b 57 3d
       0.009756195 0.06591395 -0.08183919 0.052547283
000020 96 46 3b bd bc 0a 5a bd
       -0.045721613 -0.053232893
